…
│       ├── iotools.py
│       ├── logger.py
│       ├── reidtools.py
│       └── torchtools.py
├── train_imgreid_xent_htri.py
├── train_imgreid_xent.py
├── train_vidreid_xent_htri.py
└── train_vidreid_xent.py

***************************************************************************
现在有一个疑问，就是train和test的model是一样的，为什么一个是outputs，一个是feature

***************************************************************************
网络
/home/tjj/anaconda3/bin/python "/media/tjj/Document/1Paper/8 deep-person-reid/torchreid/models/hacnn.py"

InceptionA(
      (stream1): Sequential(
        (0): ConvBlock(
          (conv): Conv2d(32, 32, kernel_size=(1, 1), stride=(1, 1))
          (bn): BatchNorm2d(32, eps=1e-05, momentum=0.1, affine=True, track_running_stats=True)
        )
        (1): ConvBlock(
          (conv): Conv2d(32, 32, kernel_size=(3, 3), stride=(1, 1), padding=(1, 1))
          (bn): BatchNorm2d(32, eps=1e-05, momentum=0.1, affine=True, track_running_stats=True)
        )
      )
      (stream2): Sequential(
        (0): ConvBlock(
          (conv): Conv2d(32, 32, kernel_size=(1, 1), stride=(1, 1))
          (bn): BatchNorm2d(32, eps=1e-05, momentum=0.1, affine=True, track_running_stats=True)
        )
        (1): ConvBlock(
          (conv): Conv2d(32, 32, kernel_size=(3, 3), stride=(1, 1), padding=(1, 1))
          (bn): BatchNorm2d(32, eps=1e-05, momentum=0.1, affine=True, track_running_stats=True)
        )
      )
      (stream3): Sequential(
        (0): ConvBlock(
          (conv): Conv2d(32, 32, kernel_size=(1, 1), stride=(1, 1))
          (bn): BatchNorm2d(32, eps=1e-05, momentum=0.1, affine=True, track_running_stats=True)
        )
        (1): ConvBlock(
          (conv): Conv2d(32, 32, kernel_size=(3, 3), stride=(1, 1), padding=(1, 1))
          (bn): BatchNorm2d(32, eps=1e-05, momentum=0.1, affine=True, track_running_stats=True)
        )
      )
      (stream4): Sequential(
        (0): AvgPool2d(kernel_size=3, stride=1, padding=1)
        (1): ConvBlock(
          (conv): Conv2d(32, 32, kernel_size=(1, 1), stride=(1, 1))
          (bn): BatchNorm2d(32, eps=1e-05, momentum=0.1, affine=True, track_running_stats=True)
        )
      )
    )
InceptionB(
      (stream1): Sequential(
        (0): ConvBlock(
          (conv): Conv2d(128, 32, kernel_size=(1, 1), stride=(1, 1))
          (bn): BatchNorm2d(32, eps=1e-05, momentum=0.1, affine=True, track_running_stats=True)
        )
        (1): ConvBlock(
          (conv): Conv2d(32, 32, kernel_size=(3, 3), stride=(2, 2), padding=(1, 1))
          (bn): BatchNorm2d(32, eps=1e-05, momentum=0.1, affine=True, track_running_stats=True)
        )
      )
      (stream2): Sequential(
        (0): ConvBlock(
          (conv): Conv2d(128, 32, kernel_size=(1, 1), stride=(1, 1))
          (bn): BatchNorm2d(32, eps=1e-05, momentum=0.1, affine=True, track_running_stats=True)
        )
        (1): ConvBlock(
          (conv): Conv2d(32, 32, kernel_size=(3, 3), stride=(1, 1), padding=(1, 1))
          (bn): BatchNorm2d(32, eps=1e-05, momentum=0.1, affine=True, track_running_stats=True)
        )
        (2): ConvBlock(
          (conv): Conv2d(32, 32, kernel_size=(3, 3), stride=(2, 2), padding=(1, 1))
          (bn): BatchNorm2d(32, eps=1e-05, momentum=0.1, affine=True, track_running_stats=True)
        )
      )
      (stream3): Sequential(
        (0): MaxPool2d(kernel_size=3, stride=2, padding=1, dilation=1, ceil_mode=False)
        (1): ConvBlock(
          (conv): Conv2d(128, 64, kernel_size=(1, 1), stride=(1, 1))
          (bn): BatchNorm2d(64, eps=1e-05, momentum=0.1, affine=True, track_running_stats=True)
        )
      )
    )


HACNN(
  (conv): ConvBlock(
    (conv): Conv2d(3, 32, kernel_size=(3, 3), stride=(2, 2), padding=(1, 1))
    (bn): BatchNorm2d(32, eps=1e-05, momentum=0.1, affine=True, track_running_stats=True)
  )
  (inception1): Sequential(
    )
  (ha1): HarmAttn(
    (soft_attn): SoftAttn(
      (spatial_attn): SpatialAttn(
        (conv1): ConvBlock(
          (conv): Conv2d(1, 1, kernel_size=(3, 3), stride=(2, 2), padding=(1, 1))
          (bn): BatchNorm2d(1, eps=1e-05, momentum=0.1, affine=True, track_running_stats=True)
        )
        (conv2): ConvBlock(
          (conv): Conv2d(1, 1, kernel_size=(1, 1), stride=(1, 1))
          (bn): BatchNorm2d(1, eps=1e-05, momentum=0.1, affine=True, track_running_stats=True)
        )
      )
      (channel_attn): ChannelAttn(
        (conv1): ConvBlock(
          (conv): Conv2d(128, 8, kernel_size=(1, 1), stride=(1, 1))
          (bn): BatchNorm2d(8, eps=1e-05, momentum=0.1, affine=True, track_running_stats=True)
        )
        (conv2): ConvBlock(
          (conv): Conv2d(8, 128, kernel_size=(1, 1), stride=(1, 1))
          (bn): BatchNorm2d(128, eps=1e-05, momentum=0.1, affine=True, track_running_stats=True)
        )
      )
      (conv): ConvBlock(
        (conv): Conv2d(128, 128, kernel_size=(1, 1), stride=(1, 1))
        (bn): BatchNorm2d(128, eps=1e-05, momentum=0.1, affine=True, track_running_stats=True)
      )
    )
    (hard_attn): HardAttn(
      (fc): Linear(in_features=128, out_features=8, bias=True)
    )
  )
  (inception2): Sequential(
    (0): InceptionA(
      (stream1): Sequential(
        (0): ConvBlock(
          (conv): Conv2d(128, 64, kernel_size=(1, 1), stride=(1, 1))
          (bn): BatchNorm2d(64, eps=1e-05, momentum=0.1, affine=True, track_running_stats=True)
        )
        (1): ConvBlock(
          (conv): Conv2d(64, 64, kernel_size=(3, 3), stride=(1, 1), padding=(1, 1))
          (bn): BatchNorm2d(64, eps=1e-05, momentum=0.1, affine=True, track_running_stats=True)
        )
      )
      (stream2): Sequential(
        (0): ConvBlock(
          (conv): Conv2d(128, 64, kernel_size=(1, 1), stride=(1, 1))
          (bn): BatchNorm2d(64, eps=1e-05, momentum=0.1, affine=True, track_running_stats=True)
        )
        (1): ConvBlock(
          (conv): Conv2d(64, 64, kernel_size=(3, 3), stride=(1, 1), padding=(1, 1))
          (bn): BatchNorm2d(64, eps=1e-05, momentum=0.1, affine=True, track_running_stats=True)
        )
      )
      (stream3): Sequential(
        (0): ConvBlock(
          (conv): Conv2d(128, 64, kernel_size=(1, 1), stride=(1, 1))
          (bn): BatchNorm2d(64, eps=1e-05, momentum=0.1, affine=True, track_running_stats=True)
        )
        (1): ConvBlock(
          (conv): Conv2d(64, 64, kernel_size=(3, 3), stride=(1, 1), padding=(1, 1))
          (bn): BatchNorm2d(64, eps=1e-05, momentum=0.1, affine=True, track_running_stats=True)
        )
      )
      (stream4): Sequential(
        (0): AvgPool2d(kernel_size=3, stride=1, padding=1)
        (1): ConvBlock(
          (conv): Conv2d(128, 64, kernel_size=(1, 1), stride=(1, 1))
          (bn): BatchNorm2d(64, eps=1e-05, momentum=0.1, affine=True, track_running_stats=True)
        )
      )
    )
    (1): InceptionB(
      (stream1): Sequential(
        (0): ConvBlock(
          (conv): Conv2d(256, 64, kernel_size=(1, 1), stride=(1, 1))
          (bn): BatchNorm2d(64, eps=1e-05, momentum=0.1, affine=True, track_running_stats=True)
        )
        (1): ConvBlock(
          (conv): Conv2d(64, 64, kernel_size=(3, 3), stride=(2, 2), padding=(1, 1))
          (bn): BatchNorm2d(64, eps=1e-05, momentum=0.1, affine=True, track_running_stats=True)
        )
      )
      (stream2): Sequential(
        (0): ConvBlock(
          (conv): Conv2d(256, 64, kernel_size=(1, 1), stride=(1, 1))
          (bn): BatchNorm2d(64, eps=1e-05, momentum=0.1, affine=True, track_running_stats=True)
        )
        (1): ConvBlock(
          (conv): Conv2d(64, 64, kernel_size=(3, 3), stride=(1, 1), padding=(1, 1))
          (bn): BatchNorm2d(64, eps=1e-05, momentum=0.1, affine=True, track_running_stats=True)
        )
        (2): ConvBlock(
          (conv): Conv2d(64, 64, kernel_size=(3, 3), stride=(2, 2), padding=(1, 1))
          (bn): BatchNorm2d(64, eps=1e-05, momentum=0.1, affine=True, track_running_stats=True)
        )
      )
      (stream3): Sequential(
        (0): MaxPool2d(kernel_size=3, stride=2, padding=1, dilation=1, ceil_mode=False)
        (1): ConvBlock(
          (conv): Conv2d(256, 128, kernel_size=(1, 1), stride=(1, 1))
          (bn): BatchNorm2d(128, eps=1e-05, momentum=0.1, affine=True, track_running_stats=True)
        )
      )
    )
  )
  (ha2): HarmAttn(
    (soft_attn): SoftAttn(
      (spatial_attn): SpatialAttn(
        (conv1): ConvBlock(
          (conv): Conv2d(1, 1, kernel_size=(3, 3), stride=(2, 2), padding=(1, 1))
          (bn): BatchNorm2d(1, eps=1e-05, momentum=0.1, affine=True, track_running_stats=True)
        )
        (conv2): ConvBlock(
          (conv): Conv2d(1, 1, kernel_size=(1, 1), stride=(1, 1))
          (bn): BatchNorm2d(1, eps=1e-05, momentum=0.1, affine=True, track_running_stats=True)
        )
      )
      (channel_attn): ChannelAttn(
        (conv1): ConvBlock(
          (conv): Conv2d(256, 16, kernel_size=(1, 1), stride=(1, 1))
          (bn): BatchNorm2d(16, eps=1e-05, momentum=0.1, affine=True, track_running_stats=True)
        )
        (conv2): ConvBlock(
          (conv): Conv2d(16, 256, kernel_size=(1, 1), stride=(1, 1))
          (bn): BatchNorm2d(256, eps=1e-05, momentum=0.1, affine=True, track_running_stats=True)
        )
      )
      (conv): ConvBlock(
        (conv): Conv2d(256, 256, kernel_size=(1, 1), stride=(1, 1))
        (bn): BatchNorm2d(256, eps=1e-05, momentum=0.1, affine=True, track_running_stats=True)
      )
    )
    (hard_attn): HardAttn(
      (fc): Linear(in_features=256, out_features=8, bias=True)
    )
  )
  (inception3): Sequential(
    (0): InceptionA(
      (stream1): Sequential(
        (0): ConvBlock(
          (conv): Conv2d(256, 96, kernel_size=(1, 1), stride=(1, 1))
          (bn): BatchNorm2d(96, eps=1e-05, momentum=0.1, affine=True, track_running_stats=True)
        )
        (1): ConvBlock(
          (conv): Conv2d(96, 96, kernel_size=(3, 3), stride=(1, 1), padding=(1, 1))
          (bn): BatchNorm2d(96, eps=1e-05, momentum=0.1, affine=True, track_running_stats=True)
        )
      )
      (stream2): Sequential(
        (0): ConvBlock(
          (conv): Conv2d(256, 96, kernel_size=(1, 1), stride=(1, 1))
          (bn): BatchNorm2d(96, eps=1e-05, momentum=0.1, affine=True, track_running_stats=True)
        )
        (1): ConvBlock(
          (conv): Conv2d(96, 96, kernel_size=(3, 3), stride=(1, 1), padding=(1, 1))
          (bn): BatchNorm2d(96, eps=1e-05, momentum=0.1, affine=True, track_running_stats=True)
        )
      )
      (stream3): Sequential(
        (0): ConvBlock(
          (conv): Conv2d(256, 96, kernel_size=(1, 1), stride=(1, 1))
          (bn): BatchNorm2d(96, eps=1e-05, momentum=0.1, affine=True, track_running_stats=True)
        )
        (1): ConvBlock(
          (conv): Conv2d(96, 96, kernel_size=(3, 3), stride=(1, 1), padding=(1, 1))
          (bn): BatchNorm2d(96, eps=1e-05, momentum=0.1, affine=True, track_running_stats=True)
        )
      )
      (stream4): Sequential(
        (0): AvgPool2d(kernel_size=3, stride=1, padding=1)
        (1): ConvBlock(
          (conv): Conv2d(256, 96, kernel_size=(1, 1), stride=(1, 1))
          (bn): BatchNorm2d(96, eps=1e-05, momentum=0.1, affine=True, track_running_stats=True)
        )
      )
    )
    (1): InceptionB(
      (stream1): Sequential(
        (0): ConvBlock(
          (conv): Conv2d(384, 96, kernel_size=(1, 1), stride=(1, 1))
          (bn): BatchNorm2d(96, eps=1e-05, momentum=0.1, affine=True, track_running_stats=True)
        )
        (1): ConvBlock(
          (conv): Conv2d(96, 96, kernel_size=(3, 3), stride=(2, 2), padding=(1, 1))
          (bn): BatchNorm2d(96, eps=1e-05, momentum=0.1, affine=True, track_running_stats=True)
        )
      )
      (stream2): Sequential(
        (0): ConvBlock(
          (conv): Conv2d(384, 96, kernel_size=(1, 1), stride=(1, 1))
          (bn): BatchNorm2d(96, eps=1e-05, momentum=0.1, affine=True, track_running_stats=True)
        )
        (1): ConvBlock(
          (conv): Conv2d(96, 96, kernel_size=(3, 3), stride=(1, 1), padding=(1, 1))
          (bn): BatchNorm2d(96, eps=1e-05, momentum=0.1, affine=True, track_running_stats=True)
        )
        (2): ConvBlock(
          (conv): Conv2d(96, 96, kernel_size=(3, 3), stride=(2, 2), padding=(1, 1))
          (bn): BatchNorm2d(96, eps=1e-05, momentum=0.1, affine=True, track_running_stats=True)
        )
      )
      (stream3): Sequential(
        (0): MaxPool2d(kernel_size=3, stride=2, padding=1, dilation=1, ceil_mode=False)
        (1): ConvBlock(
          (conv): Conv2d(384, 192, kernel_size=(1, 1), stride=(1, 1))
          (bn): BatchNorm2d(192, eps=1e-05, momentum=0.1, affine=True, track_running_stats=True)
        )
      )
    )
  )
  (ha3): HarmAttn(
    (soft_attn): SoftAttn(
      (spatial_attn): SpatialAttn(
        (conv1): ConvBlock(
          (conv): Conv2d(1, 1, kernel_size=(3, 3), stride=(2, 2), padding=(1, 1))
          (bn): BatchNorm2d(1, eps=1e-05, momentum=0.1, affine=True, track_running_stats=True)
        )
        (conv2): ConvBlock(
          (conv): Conv2d(1, 1, kernel_size=(1, 1), stride=(1, 1))
          (bn): BatchNorm2d(1, eps=1e-05, momentum=0.1, affine=True, track_running_stats=True)
        )
      )
      (channel_attn): ChannelAttn(
        (conv1): ConvBlock(
          (conv): Conv2d(384, 24, kernel_size=(1, 1), stride=(1, 1))
          (bn): BatchNorm2d(24, eps=1e-05, momentum=0.1, affine=True, track_running_stats=True)
        )
        (conv2): ConvBlock(
          (conv): Conv2d(24, 384, kernel_size=(1, 1), stride=(1, 1))
          (bn): BatchNorm2d(384, eps=1e-05, momentum=0.1, affine=True, track_running_stats=True)
        )
      )
      (conv): ConvBlock(
        (conv): Conv2d(384, 384, kernel_size=(1, 1), stride=(1, 1))
        (bn): BatchNorm2d(384, eps=1e-05, momentum=0.1, affine=True, track_running_stats=True)
      )
    )
    (hard_attn): HardAttn(
      (fc): Linear(in_features=384, out_features=8, bias=True)
    )
  )
  (fc_global): Sequential(
    (0): Linear(in_features=384, out_features=512, bias=True)
    (1): BatchNorm1d(512, eps=1e-05, momentum=0.1, affine=True, track_running_stats=True)
    (2): ReLU()
  )
  (classifier_global): Linear(in_features=512, out_features=751, bias=True)
  (local_conv1): InceptionB(
    (stream1): Sequential(
      (0): ConvBlock(
        (conv): Conv2d(32, 32, kernel_size=(1, 1), stride=(1, 1))
        (bn): BatchNorm2d(32, eps=1e-05, momentum=0.1, affine=True, track_running_stats=True)
      )
      (1): ConvBlock(
        (conv): Conv2d(32, 32, kernel_size=(3, 3), stride=(2, 2), padding=(1, 1))
        (bn): BatchNorm2d(32, eps=1e-05, momentum=0.1, affine=True, track_running_stats=True)
      )
    )
    (stream2): Sequential(
      (0): ConvBlock(
        (conv): Conv2d(32, 32, kernel_size=(1, 1), stride=(1, 1))
        (bn): BatchNorm2d(32, eps=1e-05, momentum=0.1, affine=True, track_running_stats=True)
      )
      (1): ConvBlock(
        (conv): Conv2d(32, 32, kernel_size=(3, 3), stride=(1, 1), padding=(1, 1))
        (bn): BatchNorm2d(32, eps=1e-05, momentum=0.1, affine=True, track_running_stats=True)
      )
      (2): ConvBlock(
        (conv): Conv2d(32, 32, kernel_size=(3, 3), stride=(2, 2), padding=(1, 1))
        (bn): BatchNorm2d(32, eps=1e-05, momentum=0.1, affine=True, track_running_stats=True)
      )
    )
    (stream3): Sequential(
      (0): MaxPool2d(kernel_size=3, stride=2, padding=1, dilation=1, ceil_mode=False)
      (1): ConvBlock(
        (conv): Conv2d(32, 64, kernel_size=(1, 1), stride=(1, 1))
        (bn): BatchNorm2d(64, eps=1e-05, momentum=0.1, affine=True, track_running_stats=True)
      )
    )
  )
  (local_conv2): InceptionB(
    (stream1): Sequential(
      (0): ConvBlock(
        (conv): Conv2d(128, 64, kernel_size=(1, 1), stride=(1, 1))
        (bn): BatchNorm2d(64, eps=1e-05, momentum=0.1, affine=True, track_running_stats=True)
      )
      (1): ConvBlock(
        (conv): Conv2d(64, 64, kernel_size=(3, 3), stride=(2, 2), padding=(1, 1))
        (bn): BatchNorm2d(64, eps=1e-05, momentum=0.1, affine=True, track_running_stats=True)
      )
    )
    (stream2): Sequential(
      (0): ConvBlock(
        (conv): Conv2d(128, 64, kernel_size=(1, 1), stride=(1, 1))
        (bn): BatchNorm2d(64, eps=1e-05, momentum=0.1, affine=True, track_running_stats=True)
      )
      (1): ConvBlock(
        (conv): Conv2d(64, 64, kernel_size=(3, 3), stride=(1, 1), padding=(1, 1))
        (bn): BatchNorm2d(64, eps=1e-05, momentum=0.1, affine=True, track_running_stats=True)
      )
      (2): ConvBlock(
        (conv): Conv2d(64, 64, kernel_size=(3, 3), stride=(2, 2), padding=(1, 1))
        (bn): BatchNorm2d(64, eps=1e-05, momentum=0.1, affine=True, track_running_stats=True)
      )
    )
    (stream3): Sequential(
      (0): MaxPool2d(kernel_size=3, stride=2, padding=1, dilation=1, ceil_mode=False)
      (1): ConvBlock(
        (conv): Conv2d(128, 128, kernel_size=(1, 1), stride=(1, 1))
        (bn): BatchNorm2d(128, eps=1e-05, momentum=0.1, affine=True, track_running_stats=True)
      )
    )
  )
  (local_conv3): InceptionB(
    (stream1): Sequential(
      (0): ConvBlock(
        (conv): Conv2d(256, 96, kernel_size=(1, 1), stride=(1, 1))
        (bn): BatchNorm2d(96, eps=1e-05, momentum=0.1, affine=True, track_running_stats=True)
      )
      (1): ConvBlock(
        (conv): Conv2d(96, 96, kernel_size=(3, 3), stride=(2, 2), padding=(1, 1))
        (bn): BatchNorm2d(96, eps=1e-05, momentum=0.1, affine=True, track_running_stats=True)
      )
    )
    (stream2): Sequential(
      (0): ConvBlock(
        (conv): Conv2d(256, 96, kernel_size=(1, 1), stride=(1, 1))
        (bn): BatchNorm2d(96, eps=1e-05, momentum=0.1, affine=True, track_running_stats=True)
      )
      (1): ConvBlock(
        (conv): Conv2d(96, 96, kernel_size=(3, 3), stride=(1, 1), padding=(1, 1))
        (bn): BatchNorm2d(96, eps=1e-05, momentum=0.1, affine=True, track_running_stats=True)
      )
      (2): ConvBlock(
        (conv): Conv2d(96, 96, kernel_size=(3, 3), stride=(2, 2), padding=(1, 1))
        (bn): BatchNorm2d(96, eps=1e-05, momentum=0.1, affine=True, track_running_stats=True)
      )
    )
    (stream3): Sequential(
      (0): MaxPool2d(kernel_size=3, stride=2, padding=1, dilation=1, ceil_mode=False)
      (1): ConvBlock(
        (conv): Conv2d(256, 192, kernel_size=(1, 1), stride=(1, 1))
        (bn): BatchNorm2d(192, eps=1e-05, momentum=0.1, affine=True, track_running_stats=True)
      )
    )
  )
  (fc_local): Sequential(
    (0): Linear(in_features=1536, out_features=512, bias=True)
    (1): BatchNorm1d(512, eps=1e-05, momentum=0.1, affine=True, track_running_stats=True)
    (2): ReLU()
  )
  (classifier_local): Linear(in_features=512, out_features=751, bias=True)
)

Process finished with exit code 0


***************************************************************************
重定向
sys.stdout = Logger(osp.join(args.save_dir, 'log_train.txt'))

Logger.py

from __future__ import absolute_import

import sys
import os
import os.path as osp

from .iotools import mkdir_if_missing


class Logger(object):
    """
    Write console output to external text file.
…
